jetson_deploy/model.onnx (onnx, 217777 bytes, 18 tensors)

features.1.block.1.fc1.bias f4 [8]
000000 91 51 ec b0 95 32 1f b1 a7 7f 2b b9 bd 04 01 b1
       -1.7194443e-09 -2.3166298e-09 -0.00016355385 -1.8774664e-09
000010 a1 2d b1 b0 91 99 96 32 57 60 c2 b1 35 b2 d4 2e
       -1.2891413e-09 1.7532132e-08 -5.6570957e-09 9.6723e-11

features.1.block.1.fc2.bias f4 [16]
000000 28 55 12 3f bd e0 24 3f a0 23 c9 3e 6c 4a 92 bf
       0.5716119 0.64405423 0.39284992 -1.1428962
000010 ee 77 38 bf 85 a3 ad 3f 4d de b9 be d4 47 fd be
       -0.72058 1.3565527 -0.36302415 -0.49468863
000020 95 ec 11 3f 41 de b2 be fa bf 21 3f d4 a5 72 be
       0.5700162 -0.3493519 0.6318356 -0.23696071
000030 9e b1 df be 33 ed df bd e2 ae 28 3e fa ef b5 be
       -0.436902 -0.10933914 0.16472962 -0.3553465

features.4.block.2.fc1.bias f4 [24]
000000 8c bd 48 b1 07 39 d9 b1 70 5b a2 b0 39 ea 90 b1
       -2.9211575e-09 -6.3220145e-09 -1.1813039e-09 -4.2175796e-09
000010 28 96 12 b1 21 71 a4 b1 48 8a 5e b1 a3 25 f4 31
       -2.133115e-09 -4.7858895e-09 -3.2383856e-09 7.1056134e-09
000020 2b f0 91 af bc 9d cb b1 36 9c 53 3e 58 4d 04 b1
       -2.6545996e-10 -5.92601e-09 0.20665058 -1.9252493e-09
000030 d3 29 86 b1 b0 27 f4 b2 48 0c 49 30 87 5e bd af
       -3.904668e-09 -2.8423386e-08 7.3140827e-10 -3.4446065e-10
000040 a5 31 fb b0 3c d1 99 b1 65 a7 8c b0 2d ab ae b0
       -1.8276763e-09 -4.4766733e-09 -1.0233917e-09 -1.2708817e-09
000050 a3 85 20 31 1f 12 11 b2 9c 92 8a b1 78 2d f7 ae
       2.3359028e-09 -8.444231e-09 -4.032996e-09 -1.12403364e-10

features.5.block.2.fc1.bias f4 [64]
000000 c0 07 74 bc 17 61 8f 3e e8 a5 14 ba d2 7c d1 3d
       -0.014894426 0.2800376 -0.0005670474 0.10228886
000010 ac 9e 08 3e 87 81 dd 3d 15 0e 59 3e cb 34 03 3e
       0.13341779 0.10815721 0.21196778 0.12813108
000020 2c 84 13 be 43 f4 db bd 7d 4a 45 3e c5 ab 31 3e
       -0.14405888 -0.107399486 0.19266696 0.17350681
000030 ac f3 b5 be eb d9 b9 bd 5e e9 d0 3d 06 ec d0 3c
       -0.3553747 -0.09074768 0.10200761 0.02550317
000040 c6 4a 3a bd 17 22 c8 3e 0b 56 dd 3d 10 c5 a9 bc
       -0.045481466 0.39088508 0.10807427 -0.02072385
000050 17 71 9e 3d 39 55 26 3d 21 2a e6 3d 6e 67 e0 3e
       0.07736414 0.04060862 0.11238504 0.4382891
000060 78 5c 92 3d 61 37 1c 3e 59 fa 30 3e d1 38 1b 3b
       0.07146543 0.152555 0.17283 0.0023684988
000070 a2 b0 4c 3e 0f 97 3f bd 91 72 0f be 1f a8 1a 3e
       0.19989255 -0.04677492 -0.14008547 0.15103196
000080 c8 2e b1 bd 84 11 1c bc 1a 97 f4 3d 69 57 d6 3d
       -0.08651501 -0.00952566 0.11942883 0.10465891
000090 5d 98 9d bc 94 08 95 3e 33 05 65 bc ea 30 80 bd
       -0.019237692 0.29108107 -0.01397829 -0.062593296
0000a0 59 20 13 3f a6 e1 66 3e c2 47 60 3e 05 e3 ca 3d
       0.57471234 0.22547016 0.21902373 0.09906582
0000b0 4e 9f 98 3e 4c c1 fe 3c 18 3b bf bd 9b 4f 86 3c
       0.2980904 0.03109803 -0.09337443 0.01639538
0000c0 c9 10 d4 bc bf 8f 0f 3e 29 c7 c9 bd a7 f4 91 3d
       -0.02588691 0.14019679 -0.0985244 0.07126742
0000d0 9d 1a 95 3c 92 82 96 3c 11 52 57 3e 59 b1 00 3e
       0.018201167 0.018372808 0.210274 0.12567653
0000e0 e3 cf 1a bd b7 1e 4b 3d a8 11 09 3f 1e e5 82 3e
       -0.037795912 0.04958984 0.53542566 0.25565428
0000f0 e5 72 84 3d 93 99 63 3d 2a af 98 bc 40 b9 15 3e
       0.06467227 0.05556638 -0.018638212 0.14621449

features.6.block.2.fc1.bias f4 [64]
000000 a2 24 47 3c 65 6e 96 3d 85 43 44 bd 2a c7 66 3e
       0.01215473 0.07345275 -0.047915954 0.22536913
000010 82 82 0e 3e 32 32 2f 3e b2 72 a7 3c 59 67 c1 bc
       0.13916972 0.17108992 0.020440433 -0.02360885
000020 b2 34 42 3e 72 f6 8e 3e 91 c2 93 3d 7e f5 15 3e
       0.18965414 0.27922398 0.07214845 0.14644429
000030 a9 87 eb 3d 12 1f b8 3d ff 23 3d bc 95 74 0e bd
       0.115004845 0.08990301 -0.011544227 -0.03477915
000040 44 a7 8b 3c 91 92 61 3e 87 97 b6 3e 0e 4f a0 3e
       0.017047532 0.22028567 0.3566248 0.31310314
000050 bc 24 30 bd d1 a5 23 3e d5 91 8c 3d 48 cb 17 3e
       -0.043003783 0.15981223 0.06863753 0.1482364
000060 51 2f 93 bd fb 71 71 3e 84 7e 94 3d 41 6f 29 3b
       -0.07186759 0.23578636 0.072506934 0.0025853666
000070 7f ee 87 3d 91 5d 64 3e 35 0a 17 be 3a 0c f5 3c
       0.066372864 0.22301318 -0.14749987 0.029913057
000080 4b 36 3d bd 38 5b 87 3d 15 74 92 3c 2b 42 f6 3d
       -0.046194356 0.066091955 0.017877618 0.12024339
000090 d0 3b 1f 3f fd 1b 1f 3e 45 c5 88 3d 0c 18 62 3e
       0.6220064 0.1553802 0.06678251 0.22079486
0000a0 35 9f 3b 3e 09 fb 9e 3d 69 cc 0e 3d 47 4a 1b 3e
       0.18322451 0.07762725 0.03486291 0.15165053
0000b0 46 23 51 3e 7f cd 87 3e 00 22 80 3c 70 99 ec 3d
       0.20423612 0.2652397 0.015641212 0.115527034
0000c0 6b 0c d4 3d ea 35 09 3d e3 42 e3 3d 5e 70 a9 3e
       0.10353931 0.033498682 0.11096742 0.33093542
0000d0 ea 16 e9 bc 9a 82 27 be ce 60 7d be 6b a3 b2 3e
       -0.02845331 -0.16358414 -0.2474396 0.34890303
0000e0 fc 1d cb 3c dc 7b 96 3d dd c6 54 3d 09 47 3e 3d
       0.024794571 0.07347843 0.051947463 0.046454463
0000f0 55 99 06 3e d3 e4 5f 3e 8a 7d ec 3c fd 71 0e 3d
       0.13144429 0.21864633 0.028868455 0.034776676

features.7.block.2.fc1.bias f4 [32]
000000 88 fe 2f 2f 1c e5 84 b1 f5 28 1c b2 5f 18 45 b4
       1.6006585e-10 -3.8677523e-09 -9.089708e-09 -1.8355921e-07
000010 dc f0 66 b4 7d d0 6e 30 c9 23 1b b3 8d c9 04 b2
       -2.1508043e-07 8.6880175e-10 -3.6121296e-08 -7.729239e-09
000020 cd 6c e2 32 16 2e 36 3d 12 a2 09 bc 73 9b ed b2
       2.635934e-08 0.044477545 -0.008400457 -2.7661121e-08
000030 e9 f1 9d 3e 2b 1b b6 32 49 06 81 32 90 c7 0f 3d
       0.30848625 2.1199943e-08 1.5020435e-08 0.035102427
000040 b1 b3 eb b5 95 e7 ae 32 b9 a9 70 bd 9f a6 ef 32
       -1.7561161e-06 2.0361577e-08 -0.05875561 2.7899032e-08
000050 82 28 a4 3c 68 86 20 32 78 51 0d bd bd f4 55 b3
       0.020038847 9.343786e-09 -0.034501523 -4.9815515e-08
000060 61 bc a1 b2 23 a5 a8 30 b1 ab 04 b3 91 0d 0e b2
       -1.8828532e-08 1.2270543e-09 -3.0889797e-08 -8.2685725e-09
000070 30 93 fa b0 98 9f 95 31 e8 bd 3b 3d a1 91 94 32
       -1.8231727e-09 4.3546144e-09 0.045835406 1.7295692e-08

features.8.block.2.fc1.bias f4 [40]
000000 fd 1d 33 3e 3d ab a7 3d 04 fe a4 3e e5 b1 05 3f
       0.17491908 0.08186958 0.3222505 0.5222457
000010 a2 10 b2 3d c5 3a 6e 3e ba 53 00 3e 65 5e 44 3e
       0.08694579 0.23264606 0.12531939 0.19176634
000020 5a 8f f4 3d 82 73 0e bd 22 04 7e 3d b2 4e 0b 3e
       0.11941405 -0.034778126 0.06201566 0.13604239
000030 6f 6a b8 3e 16 70 87 3e f8 58 9d 3e 3f 20 8a 3e
       0.36018702 0.26452702 0.3073194 0.26977727
000040 ca b3 9f 3d 14 95 8d 3e 22 e4 84 3e 8b d9 d0 3c
       0.07797964 0.276528 0.25955302 0.025494358
000050 f0 29 0b 3e 28 2a 65 3e 16 8f d0 3e d0 7b 06 3f
       0.13590217 0.22379363 0.40734166 0.5253267
000060 29 e4 9a 3e d7 5f bd 3d 63 6f 8e 3e 7f 33 94 3e
       0.30252197 0.092467956 0.27819356 0.28945538
000070 40 6d e4 3e 6b 6b 85 3d 2d cb 7a 3e f2 c1 40 3e
       0.446146 0.06514629 0.24491568 0.18823984
000080 4d 03 f9 3e a9 d6 ac 3d 84 81 12 3e 2b 59 af 3e
       0.4863533 0.08439381 0.14307219 0.34247717
000090 ea e2 85 3e ab cc cb 3e 0c 3b b6 3e 40 9d 5e 3e
       0.26149684 0.39804587 0.35591924 0.21739674

classifier.3.bias f4 [9]
000000 a0 51 2d bc 4c 82 32 3c c5 6c 50 3c ae 8b c1 bc
       -0.010578543 0.010895323 0.012721245 -0.023626175
000010 a1 8e d2 bc ef 6f ff bc ee 60 08 3c f9 47 59 3c
       -0.025702776 -0.031181304 0.008323891 0.0132617885
000020 c9 e3 73 3c
       0.014885851

input_bias f4 [16]
000000 60 ef 85 40 72 26 22 40 d1 9e 1b 40 f7 d1 32 c0
       4.1854706 2.5335965 2.4315684 -2.7940652
000010 32 4f 31 40 32 80 2f 40 97 dd 85 3e c0 57 b2 bc
       2.7704587 2.7421994 0.26145622 -0.021770358
000020 65 e2 2a 40 5d 53 2e 40 bd 68 47 40 88 3d 5f bf
       2.670068 2.723838 3.1157677 -0.87203264
000030 6f 7a b3 3e 48 d9 f8 3e 76 86 8c 3f 86 f2 09 c0
       0.35054347 0.48603272 1.0978534 -2.1554275

hardswish_bias f4 [16]
000000 b3 05 c2 3e 62 70 e1 3f d0 b1 51 40 06 57 9b 3e
       0.37894973 1.7612422 3.2764778 0.3033983
000010 6d d6 20 3e 07 12 46 40 f3 1b 41 3e 3e 64 1f 3f
       0.15706797 3.0948503 0.18858318 0.6226233
000020 9e 28 f6 3f 67 70 d8 3e 00 96 a0 3e 70 8e 6b 3e
       1.9231145 0.42273256 0.3136444 0.23003554
000030 c6 78 88 3e a9 25 7a 3e 82 bc fe 3d 6b a2 d4 3f
       0.26654643 0.24428429 0.12438299 1.6612066

mul_5_bias f4 [16]
000000 f2 d0 9a 40 97 86 de c0 30 b3 7e c0 34 e3 29 c0
       4.838006 -6.9539294 -3.9796867 -2.6544924
000010 01 02 7a bf d2 6a a8 3e d7 5d a3 c0 88 5c 05 bf
       -0.9765931 0.32893997 -5.105205 -0.52094316
000020 db 05 1b c1 43 61 7a c0 1a ab e8 3e 35 d1 27 c0
       -9.68893 -3.9121864 0.4544304 -2.622144
000030 60 ff 60 c0 ec 90 11 c0 cf 9d 88 bf b0 80 44 40
       -3.5155869 -2.2744703 -1.0673159 3.0703545

relu_3_bias f4 [24]
000000 a4 eb 16 bf 95 14 97 bf 1d 70 82 40 db e3 2e bf
       -0.5895331 -1.1803156 4.0761857 -0.6831643
000010 2c 9c df bf 74 43 1f c0 70 f3 ae 3f d6 9f b5 40
       -1.7469535 -2.488492 1.3668041 5.675761
000020 7e 39 5d c0 fb 80 ae bf 30 e5 9b bd 8f 81 01 40
       -3.456634 -1.3633112 -0.076120734 2.0235326
000030 8a 40 b4 3e ce 3b 73 3f ad 2f 2b 40 2c f0 e4 3f
       0.3520549 0.9501313 2.674785 1.7885795
000040 1a e3 33 40 45 b0 ac 3d 6a 29 1f 40 72 01 04 40
       2.8107362 0.08432058 2.4869027 2.0625882
000050 e4 a9 bd bf 11 1f 6f bf 51 4b b6 bd f0 33 6f c0
       -1.4817472 -0.9340678 -0.08901084 -3.737545

relu_5_bias f4 [24]
000000 9d ee 88 c0 7d 13 04 3f 74 e3 d2 3f ee 0c e1 3e
       -4.2791276 0.51592237 1.6475663 0.43955177
000010 51 41 23 3f f6 8e 53 40 88 ce 35 bf 7f 90 04 40
       0.6377154 3.3056006 -0.71018267 2.0713193
000020 26 57 df be 31 e2 87 be 54 0a 35 3e d4 28 4d bf
       -0.43621176 -0.26539758 0.17679721 -0.80140424
000030 14 86 ac bf 0c 90 ed bf 3e ec 86 bf ac 5e a6 3f
       -1.3478417 -1.8559585 -1.0540845 1.2997642
000040 c9 1c f7 bf 86 3d 24 c0 a2 90 05 3f 6e 7d 3c c0
       -1.930566 -2.566255 0.5217382 -2.9451556
000050 3e 1c d0 be fa 3c 7f 3e 5d 69 b9 3f ea 24 75 be
       -0.40646547 0.24925604 1.4485279 -0.23939863

mul_6_bias f4 [40]
000000 2e 52 42 3d 9f 97 dd bf 59 8a e2 be 8b 1f 1b c0
       0.047441654 -1.7311896 -0.44246176 -2.4238002
000010 3a 94 4f 3f 86 d8 a0 3f 8d d5 27 bf 1f 65 38 bf
       0.8108555 1.2566078 -0.6556023 -0.720293
000020 52 e4 eb 3f e3 5f 0c 3f 04 da 4b 3f 8b 2e ad 3f
       1.8429053 0.5483381 0.7962954 1.3529829
000030 2d 7d f6 be 7c 6b 52 c0 81 10 16 40 0e 67 9e bd
       -0.48142377 -3.2878103 2.3447573 -0.077345
000040 c4 61 25 40 d0 05 a4 c0 ee 50 59 40 51 e7 00 3f
       2.5840921 -5.1257095 3.3955646 0.5035296
000050 62 0e 1f be c7 7e 6b bf f1 05 00 3f 4d 42 03 c0
       -0.1553283 -0.9199032 0.50009066 -2.0509217
000060 80 33 ff 3e de 27 34 3f cc e3 cb 3f 47 b8 1a bf
       0.4984398 0.7037333 1.5928893 -0.60437435
000070 76 ef 9b bf 0b 89 3a 40 85 6a b2 3e 6d 67 19 bf
       -1.2182453 2.9146144 0.34846893 -0.5992344
000080 d3 88 00 bf 37 66 96 3f 9f 66 29 c0 02 47 b4 bd
       -0.5020878 1.1749943 -2.6468885 -0.08802606
000090 05 bd f1 bf 02 17 b7 3f 5e 4b 64 bf 61 37 34 bf
       -1.8885809 1.4303896 -0.891775 -0.70397

mul_7_bias f4 [40]
000000 b7 3b f4 be 13 f7 69 3f 15 36 71 be 4a 27 10 3f
       -0.4770181 0.9139263 -0.23555787 0.5630995
000010 5b ad 88 3e 06 79 e4 be 2b dd 0e bf 7b 87 4b bf
       0.2669476 -0.44623584 -0.55806226 -0.795036
000020 af f0 4a bf df c5 8a bd 8e 54 df 3d 1c 1d d9 be
       -0.79273504 -0.06776022 0.109047994 -0.4240502
000030 5d 95 e3 3e 85 63 79 bf d3 f3 40 3f b0 7e d6 3f
       0.44449893 -0.9741748 0.75372046 1.6757412
000040 57 6f 26 3e 31 19 cb 3e cc 36 0d 3e 7a 7d d4 be
       0.1625341 0.39667657 0.13790435 -0.4150198
000050 87 fd bf bd f3 f9 04 bd 2f 6a a3 be 32 18 d0 3e
       -0.093745284 -0.032464933 -0.3191695 0.4064346
000060 76 f6 34 bf 57 85 cb bf 97 50 2f 40 c9 12 a5 3f
       -0.7068857 -1.5900067 2.7392938 1.2896358
000070 4e 17 bc 3c fb 39 6f 3f b6 8f ca 3e 58 8c 66 3e
       0.022960331 0.93447846 0.39562768 0.22514474
000080 20 57 11 bf 55 3f 9a 3e fa 0b 95 bf 5c 82 62 3f
       -0.5677357 0.30126444 -1.164428 0.8848016
000090 e9 02 a6 3e 53 8e 97 bf 76 c2 76 3e 3b b4 9f 3f
       0.32424095 -1.1840309 0.24097618 1.2476877

mul_8_bias f4 [40]
000000 b6 65 8c 40 66 be bc bd 7b 06 d4 bf 29 6e 41 bf
       4.387416 -0.09216003 -1.6564478 -0.75558716
000010 12 53 d7 be cf 54 c1 be 36 5d e1 3e d0 2a 97 bf
       -0.42055565 -0.37760016 0.44016427 -1.180994
000020 9b ed 21 bf 3c f4 fa bd 3d b5 05 bf ad db aa 3d
       -0.6325318 -0.12253615 -0.5222967 0.08342681
000030 f1 9e 44 3e 6e 81 44 bf 9e 0c bf 3e b6 72 a4 3e
       0.19201256 -0.76759994 0.37314314 0.32118767
000040 a5 8e e1 be cd 1b 27 be 17 3e 07 c0 8e 7a 5a bf
       -0.44054142 -0.16319199 -2.1131647 -0.85343254
000050 63 b6 ed 3f 1b 49 28 3f 7e d5 c3 3f 54 cb aa bf
       1.8571285 0.6573655 1.5299528 -1.3343301
000060 1d 12 0a ba b5 06 57 3f 11 2e 62 40 fe a5 2e 3f
       -0.00052669813 0.8399461 3.5340617 0.68222034
000070 cc 00 8a 40 36 ad 8c 3f 98 87 89 bf 0c ae 5b bf
       4.3125973 1.099036 -1.0744505 -0.8581245
000080 99 05 f2 3e 37 7c 06 40 e5 84 95 bf fd f3 a0 3f
       0.47269896 2.1013315 -1.1681181 1.2574459
000090 16 84 53 3d 51 27 ea bf c3 f7 6b be 3c 8a 8e bf
       0.05163964 -1.8293248 -0.23043732 -1.1135936

mul_9_bias f4 [48]
000000 ab 72 73 3e b4 86 8b be 81 05 8c 3e e1 50 02 c0
       0.23774211 -0.27251208 0.2734795 -2.0361865
000010 5f 2c 14 bf 2f 43 d7 be 4c 9f f6 bd 8a 4a 49 bf
       -0.57880205 -0.42043445 -0.12042102 -0.7862936
000020 ae ef 24 40 0d 62 d2 bc 09 9b db be c6 ec 41 3f
       2.577129 -0.02568152 -0.4289172 0.7575191
000030 7c 90 5e c0 8a 35 30 3e 76 e4 4f 3e ac 4f 2c 3e
       -3.4775686 0.17207924 0.20301995 0.16827267
000040 5e 42 48 bf 14 39 57 bf 48 9d 7e bf b3 48 0f be
       -0.7822627 -0.8407147 -0.9945874 -0.13992576
000050 79 56 a1 bf 14 d1 95 3f d0 cd 30 bf 1a f6 e6 be
       -1.2604514 1.170443 -0.69064045 -0.45109636
000060 fc a6 60 3f 8f 9b 09 3f 6c 9c 74 3f 6d 7c fd 3e
       0.877548 0.5375299 0.9555118 0.49508992
000070 8c 81 a3 bf 83 d2 a8 bd 9e f2 15 be 3a fc b0 bf
       -1.277391 -0.08243277 -0.14643332 -1.3826973
000080 5f f5 e5 3d b1 6d 91 bf 9d 4f 76 be cc 0f 4d 3f
       0.112284414 -1.13616 -0.24053808 0.8010223
000090 b4 a3 cf bf d9 9f c9 bf 0e 03 7f 3f 83 d2 45 3f
       -1.6221833 -1.5751907 0.99614036 0.7727434
0000a0 16 99 69 3f 8a 1b 08 bf a3 88 54 3e da cd 4b bf
       0.91249216 -0.5316702 0.20755248 -0.7961098
0000b0 72 f1 6f bf ad 92 3b 3e 24 ff a9 bf 28 08 0b bf
       -0.9372779 0.18317671 -1.3280988 -0.5430932

mul_10_bias f4 [48]
000000 ca be 06 40 8d 58 e9 bd e7 5b 10 bf 98 9e 35 3f
       2.1053948 -0.11393843 -0.5639023 0.7094512
000010 3b 3e bb bf 3b d5 11 3f 77 ae 95 be c2 25 df be
       -1.4628366 0.5696599 -0.2923467 -0.43583494
000020 5a 30 23 40 fa 69 46 be 86 ee f3 3c 7c e4 26 3f
       2.5498261 -0.19376364 0.029776823 0.6519239
000030 68 5f 6f be 84 29 90 bf 52 ee 89 be f1 d6 a7 3e
       -0.23376238 -1.126267 -0.26939636 0.32781175
000040 a6 48 fe be e8 8f a6 3e 65 ee 4f 3e a9 b6 f9 3d
       -0.496648 0.32531667 0.20305784 0.12193043
000050 cf 19 47 be a8 80 4b bf ec 3a d0 3e 48 8c 10 3e
       -0.19443439 -0.7949319 0.40669954 0.14116013
000060 d3 39 3f 3f 55 b0 8b be 1c 98 32 3d 60 1b 46 3e
       0.7469761 -0.27282968 0.043602094 0.1934638
000070 14 2e 8b 3f 30 d2 04 3e ca 4c 29 3e e4 ba b8 3e
       1.0873437 0.12970805 0.16533199 0.36080086
000080 70 2c 51 3e 0f c4 04 bf 69 da 5d be d5 6c 98 be
       0.20427108 -0.5186166 -0.21665348 -0.29770532
000090 c4 2d f2 bf be 1c d1 3d fe 7d 3d 3e 70 09 36 3f
       -1.8920217 0.1021056 0.18505093 0.7110815
0000a0 bb 22 62 3f 18 cb 1e 3f 0e d1 f0 3d db 5e 11 3f
       0.88334244 0.62028646 0.11758624 0.5678536
0000b0 d9 ef ca 3f a0 09 8f 3e 93 13 8f 3e 2f 60 76 3e
       1.5854446 0.2793703 0.2794462 0.24060129
