jetson_deploy/model.onnx (onnx, 231189 bytes, 18 tensors)

features.1.block.1.fc1.bias f4 [8]
0	0xb0ec5191	-1.7194443e-09
1	0xb11f3295	-2.3166298e-09
2	0xb92b7fa7	-0.00016355385
3	0xb10104bd	-1.8774664e-09
4	0xb0b12da1	-1.2891413e-09
5	0x32969991	1.7532132e-08
6	0xb1c26057	-5.6570957e-09
7	0x2ed4b235	9.6723e-11

features.1.block.1.fc2.bias f4 [16]
0	0x3f11b454	0.56915784
1	0x3f24c996	0.64370096
2	0x3ec9b0fc	0.3939284
3	0xbf922f48	-1.1420679
4	0xbf36ffa0	-0.714838
5	0x3fad78bb	1.3552469
6	0xbeb880a2	-0.3603564
7	0xbefdb705	-0.49553695
8	0x3f109358	0.5647483
9	0xbeb2d30b	-0.34926638
10	0x3f225514	0.6341107
11	0xbe726609	-0.23671736
12	0xbede515a	-0.4342144
13	0xbde699a0	-0.112597704
14	0x3e29bb6b	0.165754
15	0xbeb6e56f	-0.3572192

features.4.block.2.fc1.bias f4 [24]
0	0xb148bd8c	-2.9211575e-09
1	0xb1d93907	-6.3220145e-09
2	0xb0a25b70	-1.1813039e-09
3	0xb190ea39	-4.2175796e-09
4	0xb1129628	-2.133115e-09
5	0xb1a47121	-4.7858895e-09
6	0xb15e8a48	-3.2383856e-09
7	0x31f425a3	7.1056134e-09
8	0xaf91f02b	-2.6545996e-10
9	0xb1cb9dbc	-5.92601e-09
10	0x3e512b87	0.2042676
11	0xb1044d58	-1.9252493e-09
12	0xb18629d3	-3.904668e-09
13	0xb2f427b0	-2.8423386e-08
14	0x30490c48	7.3140827e-10
15	0xafbd5e87	-3.4446065e-10
16	0xb0fb31a5	-1.8276763e-09
17	0xb199d13c	-4.4766733e-09
18	0xb08ca765	-1.0233917e-09
19	0xb0aeab2d	-1.2708817e-09
20	0x312085a3	2.3359028e-09
21	0xb211121f	-8.444231e-09
22	0xb18a929c	-4.032996e-09
23	0xaef72d78	-1.12403364e-10

features.5.block.2.fc1.bias f4 [64]
0	0xbc89af0b	-0.0168071
1	0x3e907eb5	0.2822167
2	0xbac38063	-0.0014915582
3	0x3dcde411	0.10053266
4	0x3e06c5e5	0.13161428
5	0x3dde8ea5	0.10867051
6	0x3e5913a4	0.21198899
7	0x3e03ab5a	0.12858334
8	0xbe145e4a	-0.14489093
9	0xbddc64ee	-0.10761438
10	0x3e441ba8	0.19151175
11	0x3e36a32c	0.17835683
12	0xbeb62b08	-0.35579705
13	0xbdb2016c	-0.086916775
14	0x3dda6440	0.106636524
15	0x3cdb7e06	0.026793491
16	0xbd451ba2	-0.048122056
17	0x3ec6487a	0.3872717
18	0x3de95bcd	0.11394463
19	0xbca78ed4	-0.020453848
20	0x3da58018	0.080810726
21	0x3d22ca0d	0.039743472
22	0x3de56559	0.11200971
23	0x3ee12ae2	0.4397803
24	0x3d933466	0.071877286
25	0x3e18fc6a	0.14940038
26	0x3e2faa66	0.17154846
27	0x3b1bede9	0.0023792929
28	0x3e5204cd	0.20509644
29	0xbd2741ba	-0.040834166
30	0xbe1091f8	-0.14118183
31	0x3e1a84b4	0.15089685
32	0xbdaf6083	-0.0856333
33	0xbc46351b	-0.012097622
34	0x3dec318a	0.11532886
35	0x3ddc141f	0.10746025
36	0xbcb50ed4	-0.022101797
37	0x3e9490cc	0.2901672
38	0xbc90d704	-0.017680652
39	0xbd782e82	-0.06059123
40	0x3f12bb65	0.5731719
41	0x3e668e69	0.22515263
42	0x3e5c4e32	0.21514204
43	0x3dc8d435	0.098061
44	0x3e993d1b	0.29929432
45	0x3d036c03	0.03208543
46	0xbdbfc339	-0.09363408
47	0x3c9f2ca1	0.01943046
48	0xbcc9a3ea	-0.024614293
49	0x3e0b4186	0.13599214
50	0xbdcac076	-0.0989999
51	0x3d90d65c	0.07072136
52	0x3c5467d2	0.012964206
53	0x3c9a42d6	0.018830698
54	0x3e56534f	0.20930217
55	0x3e02684c	0.12735099
56	0xbd040fb9	-0.032241557
57	0x3d46af87	0.04850724
58	0x3f085b64	0.5326445
59	0x3e81d82c	0.2536024
60	0x3d7a41f4	0.061098054
61	0x3d5fd2d2	0.054644413
62	0xbc7be087	-0.015373356
63	0x3e1a0722	0.15041783

features.6.block.2.fc1.bias f4 [64]
0	0x3c66c043	0.014083925
1	0x3d8f24f1	0.06989468
2	0xbd4e80e3	-0.050415885
3	0x3e65bf43	0.22436242
4	0x3e0ed531	0.13948514
5	0x3e34d34f	0.17658733
6	0x3c8f9efd	0.017531866
7	0xbcba4343	-0.022737151
8	0x3e40f21c	0.18842357
9	0x3e9089b9	0.28230074
10	0x3d961561	0.073282965
11	0x3e14f4a7	0.14546452
12	0x3ded8f45	0.11599592
13	0x3db8ecfe	0.09029578
14	0xbc9d49ad	-0.01920017
15	0xbd23c4fe	-0.03998279
16	0x3c9f94fd	0.019480223
17	0x3e64ce27	0.22344266
18	0x3eb8de05	0.36106887
19	0x3ea07ba1	0.3134432
20	0xbd36681b	-0.044532876
21	0x3e238a71	0.1597078
22	0x3d8f1f71	0.06988419
23	0x3e18404c	0.14868277
24	0xbd908d38	-0.07058185
25	0x3e75f702	0.24020007
26	0x3d8735f7	0.0660209
27	0x3b4be5c4	0.0031112293
28	0x3d8fe505	0.07026104
29	0x3e648a05	0.22318275
30	0xbe16cec0	-0.14727306
31	0x3cec62a1	0.028855624
32	0xbd56dc9b	-0.05245648
33	0x3d7382e3	0.059450995
34	0x3ce1a150	0.02754274
35	0x3dfbcabe	0.122945294
36	0x3f1f2071	0.62158877
37	0x3e21ac81	0.15788461
38	0x3d920c8c	0.071312994
39	0x3e6375b0	0.22212863
40	0x3e44dc2b	0.19224612
41	0x3d9cf71e	0.07664321
42	0x3d0c24e6	0.034214877
43	0x3e1bc599	0.15212096
44	0x3e50d505	0.2039376
45	0x3e8ab38e	0.27090114
46	0x3c82032a	0.01587065
47	0x3de55653	0.11198106
48	0x3ddecef9	0.10879321
49	0x3d130a99	0.03589878
50	0x3de07751	0.10960258
51	0x3ea9d99b	0.33173832
52	0xbce5fd38	-0.028074846
53	0xbe2a243e	-0.16615388
54	0xbe7d7d55	-0.24754842
55	0x3eb457ff	0.35223386
56	0x3ca57f4f	0.020202307
57	0x3d983636	0.07432215
58	0x3d586298	0.0528284
59	0x3d4bda64	0.04976882
60	0x3e029cb0	0.12755084
61	0x3e657b84	0.22410399
62	0x3cdefd83	0.027220493
63	0x3d224259	0.039614055

features.7.block.2.fc1.bias f4 [32]
0	0x2f2ffe88	1.6006585e-10
1	0xb184e51c	-3.8677523e-09
2	0xb21c28f5	-9.089708e-09
3	0xb445185f	-1.8355921e-07
4	0xb466f0dc	-2.1508043e-07
5	0x306ed07d	8.6880175e-10
6	0xb31b23c9	-3.6121296e-08
7	0xb204c98d	-7.729239e-09
8	0x32e26ccd	2.635934e-08
9	0x3d2095d8	0.039205402
10	0xbbc3c4f4	-0.0059744064
11	0xb2ed9b73	-2.7661121e-08
12	0x3ea16d38	0.3152864
13	0x32b61b2b	2.1199943e-08
14	0x32810649	1.5020435e-08
15	0x3d0b4b75	0.03400751
16	0xb5ebb3b1	-1.7561161e-06
17	0x32aee795	2.0361577e-08
18	0xbd7b230a	-0.061312713
19	0x32efa69f	2.7899032e-08
20	0x3ca4f964	0.02013845
21	0x32208668	9.343786e-09
22	0xbd00a1cc	-0.0314043
23	0xb355f4bd	-4.9815515e-08
24	0xb2a1bc61	-1.8828532e-08
25	0x30a8a523	1.2270543e-09
26	0xb304abb1	-3.0889797e-08
27	0xb20e0d91	-8.2685725e-09
28	0xb0fa9330	-1.8231727e-09
29	0x31959f98	4.3546144e-09
30	0x3d45159a	0.048116304
31	0x329491a1	1.7295692e-08

features.8.block.2.fc1.bias f4 [40]
0	0x3e3099e3	0.17246203
1	0x3dab0dd2	0.083522454
2	0x3ea55d8d	0.32297936
3	0x3f0466db	0.51719445
4	0x3da82c11	0.0821153
5	0x3e72cfbd	0.23712058
6	0x3dffa95b	0.12483474
7	0x3e460520	0.19337893
8	0x3deccd4b	0.11562594
9	0xbd117790	-0.035514414
10	0x3d78a00d	0.06069951
11	0x3e06f014	0.1317752
12	0x3ebb8b3b	0.36629662
13	0x3e869a2d	0.26289502
14	0x3e9ec41d	0.31008998
15	0x3e8b959e	0.27262586
16	0x3d9e1e65	0.07720641
17	0x3e8e5b44	0.27804005
18	0x3e8510fa	0.25989515
19	0x3cde1870	0.027111262
20	0x3e0611d1	0.13092734
21	0x3e6390d0	0.2222321
22	0x3ecf207e	0.40454477
23	0x3f06fbb4	0.5272782
24	0x3e9c0fd3	0.30480823
25	0x3dc38131	0.09546126
26	0x3e8da23f	0.27662846
27	0x3e9310c7	0.28723738
28	0x3ee3e749	0.44512394
29	0x3d816d11	0.06319631
30	0x3e7cacf2	0.24675348
31	0x3e409666	0.18807372
32	0x3ef870bd	0.48523512
33	0x3daddee3	0.08489778
34	0x3e107eec	0.14110917
35	0x3eafada9	0.3431218
36	0x3e85a5e9	0.26103142
37	0x3ecaa13d	0.3957614
38	0x3eb80c11	0.35946706
39	0x3e5f259a	0.21791688

classifier.3.bias f4 [9]
0	0xbcc51a00	-0.02406025
1	0xbc487b54	-0.012236435
2	0x3cc69453	0.024240648
3	0xbc230e20	-0.009952098
4	0xbcf7d562	-0.030253116
5	0xbb5aedcb	-0.0033405896
6	0xbc44543d	-0.011982975
7	0xbac517f0	-0.0015037041
8	0x3d00f99f	0.031488057

input_bias f4 [16]
0	0x40863644	4.194124
1	0x40229fe1	2.5410082
2	0x401b3dde	2.425651
3	0xc031198d	-2.7671845
4	0x4031a794	2.7758532
5	0x402fca4e	2.7467227
6	0x3e841d3b	0.2580355
7	0xbc93993c	-0.018017404
8	0x402b1a4f	2.6734807
9	0x402f2945	2.736894
10	0x40467a41	3.1012118
11	0xbf6ee2f5	-0.9331506
12	0x3eb0f962	0.34565264
13	0x3efb06ae	0.49028534
14	0x3f8ce3a7	1.1006974
15	0xc00c4295	-2.1915638

hardswish_bias f4 [16]
0	0x3ea714d6	0.32633084
1	0x3fe2c163	1.7715267
2	0x4051b1ba	3.2764726
3	0x3e99f6aa	0.30071002
4	0x3e603fa6	0.2189928
5	0x40454cb7	3.0828073
6	0x3e404489	0.18776144
7	0x3f250b08	0.6446996
8	0x3ff5d31d	1.9205052
9	0x3ec5b1c0	0.38612175
10	0x3e97fabc	0.29683483
11	0x3e67d244	0.22638804
12	0x3e9d4dad	0.30723324
13	0x3e8e24e0	0.27762508
14	0x3dfd1672	0.12357797
15	0x3fd4a64d	1.6613251

mul_5_bias f4 [16]
0	0x409b5f54	4.8553867
1	0xc0dc907b	-6.892637
2	0xc07dc609	-3.965212
3	0xc0294982	-2.6451116
4	0xbf764aab	-0.96207684
5	0x3ea4fb4a	0.32222968
6	0xc0a45c2a	-5.1362505
7	0xbf0b43b8	-0.54400206
8	0xc11b5644	-9.708561
9	0xc07b8dfd	-3.9305413
10	0x3eee34d6	0.46524686
11	0xc027e97d	-2.623626
12	0xc06051cf	-3.5049932
13	0xc0124e8e	-2.2860446
14	0xbf8abf0d	-1.0839554
15	0x4046952a	3.1028543

relu_3_bias f4 [24]
0	0xbf1ad588	-0.6048207
1	0xbf93c209	-1.154359
2	0x408213c9	4.064915
3	0xbf2fbb70	-0.6864538
4	0xbfdfd40f	-1.748659
5	0xc01ecdc3	-2.4813087
6	0x3fad4f8d	1.3539902
7	0x40b3f6e8	5.62389
8	0xc05c8b9a	-3.4460206
9	0xbfad1cef	-1.3524455
10	0xbd8e02e8	-0.06934148
11	0x40015d1d	2.0213082
12	0x3eac68c1	0.3367367
13	0x3f7355fe	0.9505309
14	0x402cbe2b	2.699107
15	0x3fe6c16f	1.8027781
16	0x40361305	2.8449109
17	0x3db1f179	0.086886354
18	0x4020966c	2.509181
19	0x40045214	2.0675097
20	0xbfbf7bb7	-1.495963
21	0xbf73bc95	-0.9520963
22	0xbd9a1799	-0.07524032
23	0xc06d1f83	-3.7050483

relu_5_bias f4 [24]
0	0xc086b03a	-4.209012
1	0x3f037147	0.5134472
2	0x3fcd17ea	1.6022923
3	0x3ee4caa1	0.44685844
4	0x3f285d6b	0.65767545
5	0x404db6a8	3.2142735
6	0xbf3ae711	-0.7300883
7	0x4007c5e8	2.1214542
8	0xbedcea03	-0.43147287
9	0xbe85adc2	-0.2610913
10	0x3e38bb03	0.1804009
11	0xbf4d3c81	-0.80170447
12	0xbfacd6c9	-1.3503047
13	0xbfecd64b	-1.8502897
14	0xbf86c414	-1.0528588
15	0x3fa716e9	1.3053867
16	0xbff9f010	-1.9526386
17	0xc024394b	-2.565997
18	0x3f01fc57	0.50775665
19	0xc03b4289	-2.925936
20	0xbeceec2c	-0.4041456
21	0x3e7be4cc	0.24598998
22	0x3fbe0954	1.4846597
23	0xbe847436	-0.25869912

mul_6_bias f4 [40]
0	0x3cfa0180	0.030518293
1	0xbfdfd941	-1.7488176
2	0xbef08170	-0.46973753
3	0xc01804c2	-2.3752904
4	0x3f50cb14	0.8155987
5	0x3f9fd6f5	1.2487475
6	0xbf26a16c	-0.6509006
7	0xbf388fe0	-0.72094536
8	0x3fe136d5	1.7594858
9	0x3f07877e	0.5294112
10	0x3f4f1828	0.80896235
11	0x3fad2c07	1.3529061
12	0xbf09a90c	-0.5377357
13	0xc0576b5f	-3.3659284
14	0x4015dacd	2.3414795
15	0xbda5c895	-0.080948986
16	0x402910c8	2.6416492
17	0xc09ec7e7	-4.961902
18	0x40593b25	3.394235
19	0x3efa12e3	0.48842534
20	0xbe3ebd9f	-0.18627022
21	0xbf684d09	-0.90742546
22	0x3ef51eda	0.478751
23	0xc001d1b7	-2.028425
24	0x3efcb400	0.4935608
25	0x3f2e6815	0.68127567
26	0x3fcca1e8	1.598691
27	0xbf1a9121	-0.603777
28	0xbf964420	-1.173954
29	0x4038ff62	2.8905873
30	0x3eabe2ad	0.33571377
31	0xbf125afa	-0.5717007
32	0xbefbc1a3	-0.4917117
33	0x3f928a71	1.1448499
34	0xc0268c5f	-2.6023176
35	0xbdc4b9d7	-0.09605759
36	0xbff246ac	-1.8927817
37	0x3fb916e7	1.4460114
38	0xbf58c355	-0.84673053
39	0xbf31325d	-0.69217473

mul_7_bias f4 [40]
0	0xbed01bdb	-0.40646252
1	0x3f66c653	0.9014637
2	0xbe652530	-0.22377467
3	0x3f158cca	0.5841795
4	0x3e538f8f	0.20660232
5	0xbee99f97	-0.4562957
6	0xbeef13b0	-0.46694708
7	0xbf578b93	-0.8419735
8	0xbf4fb804	-0.8114016
9	0xbda2c23c	-0.079472035
10	0x3dece235	0.11566583
11	0xbec15d4e	-0.37766498
12	0x3ee0b723	0.43889722
13	0xbf7e9938	-0.99452543
14	0x3f431b2e	0.7621335
15	0x3fe1b3a6	1.7632949
16	0x3e29d444	0.16584879
17	0x3ec17521	0.37784675
18	0x3e3893a3	0.18025069
19	0xbed7cbe8	-0.42147756
20	0xbe05c572	-0.130636
21	0xbd1e7f63	-0.038695704
22	0xbe8fd940	-0.28095436
23	0x3e9fc771	0.3120685
24	0xbf338236	-0.7012056
25	0xbfca11df	-1.5786704
26	0x4020df00	2.5136108
27	0x3f976c1a	1.1829865
28	0xbd316562	-0.043309577
29	0x3f751224	0.95730805
30	0x3ed68406	0.418976
31	0x3e837acc	0.25679624
32	0xbf0ced0f	-0.5504922
33	0x3e9dd0bb	0.3082331
34	0xbf9d23c5	-1.2276541
35	0x3f579894	0.8421719
36	0x3eab6007	0.334717
37	0xbf960d44	-1.1722798
38	0x3e81eca5	0.25375858
39	0x3f97229e	1.1807439

mul_8_bias f4 [40]
0	0x409300b3	4.5938354
1	0xbd9b47d0	-0.075820565
2	0xbfcfbf57	-1.6230267
3	0xbf6d902b	-0.9279811
4	0xbed2b4c7	-0.41153547
5	0xbec89013	-0.3917242
6	0x3eb17f23	0.3466731
7	0xbf8da855	-1.1066996
8	0xbf15490c	-0.58314586
9	0xbe6a1f3a	-0.22863474
10	0xbef7723f	-0.4832935
11	0x3d9e7818	0.0773775
12	0x3e86084b	0.26178202
13	0xbf558424	-0.83404756
14	0x3ef28169	0.47364357
15	0x3ea6359d	0.3246278
16	0xbee0d016	-0.43908757
17	0xbdf27531	-0.11838759
18	0xc00e6e41	-2.2254794
19	0xbf4e6757	-0.80626434
20	0x3ff5f38e	1.9214952
21	0x3f47e875	0.78089076
22	0x3fdab354	1.7085977
23	0xbfb880cd	-1.4414307
24	0xbc072b5c	-0.008250084
25	0x3f6f97a4	0.9359076
26	0x406875cd	3.63219
27	0x3f1b9032	0.607669
28	0x408e186d	4.4404817
29	0x3f8e0498	1.1095152
30	0xbf960684	-1.1720738
31	0xbf46147b	-0.77375
32	0x3efc9a9b	0.49336705
33	0x400902cb	2.1407955
34	0xbf91a234	-1.1377625
35	0x3fa4f6ac	1.2887778
36	0xbca32fb9	-0.019920217
37	0xbfe2c925	-1.7717634
38	0xbe9a11cf	-0.30091712
39	0xbf987d5a	-1.1913254

mul_9_bias f4 [48]
0	0x3e812299	0.25221708
1	0xbe82159a	-0.25407106
2	0x3e914d0e	0.283791
3	0xc006c180	-2.1055603
4	0xbf141600	-0.5784607
5	0xbed75ebe	-0.4206447
6	0xbe0d49ed	-0.13797732
7	0xbf3458c4	-0.70447946
8	0x4021f63e	2.5306544
9	0xbcbd2985	-0.023091087
10	0xbee6c3bf	-0.45071217
11	0x3f3d118f	0.7385492
12	0xc05f4bb7	-3.4889963
13	0x3e4aa04d	0.19787712
14	0x3e48ea4c	0.19620627
15	0x3e3b8d4c	0.18315619
16	0xbf42ea6e	-0.7613896
17	0xbf55649a	-0.8335663
18	0xbf77f6e7	-0.9686112
19	0xbe17b7ae	-0.14816162
20	0xbf9b8f20	-1.2153053
21	0x3f97122a	1.1802418
22	0xbf32d8e2	-0.69862187
23	0xbee4c4df	-0.4468145
24	0x3f67721c	0.9040849
25	0x3f07dd82	0.5307237
26	0x3f718380	0.9434128
27	0x3efde106	0.49585742
28	0xbfa57512	-1.2926352
29	0xbdb0e0be	-0.08636616
30	0xbdfed097	-0.12442129
31	0xbfb1c7d8	-1.3889112
32	0x3dc31b05	0.09526638
33	0xbf8dfaa3	-1.1092113
34	0xbe5a8477	-0.21339594
35	0x3f52c935	0.8233827
36	0xbfc90141	-1.5703508
37	0xbfc6f342	-1.5542986
38	0x3f70dc3c	0.9408605
39	0x3f460c14	0.7736218
40	0x3f666e08	0.90011644
41	0xbf069c27	-0.5258202
42	0x3e594ab1	0.21219899
43	0xbf4ce1bc	-0.80031943
44	0xbf6f9097	-0.9358
45	0x3e268cc6	0.16264638
46	0xbfab9ec6	-1.3407829
47	0xbf106b8c	-0.56414104

mul_10_bias f4 [48]
0	0x40075dc6	2.1150985
1	0xbe011a8a	-0.1260778
2	0xbf110bb5	-0.5665849
3	0x3f38eff8	0.72241163
4	0xbfc2e1f9	-1.5225211
5	0x3f1294b2	0.5725814
6	0xbe98d904	-0.2985307
7	0xbeeaf4ed	-0.4588999
8	0x4021daf3	2.5289886
9	0xbe544637	-0.2072991
10	0x3cff00c4	0.031128295
11	0x3f2f8547	0.6856274
12	0xbe5ccec3	-0.21563248
13	0xbf9008b9	-1.1252662
14	0xbe763a23	-0.24045615
15	0x3ea8ff40	0.3300724
16	0xbefe4595	-0.49662462
17	0x3e991ac1	0.29903224
18	0x3e2cf934	0.16891938
19	0x3df6851c	0.12037107
20	0xbe4a5021	-0.19757129
21	0xbf43e472	-0.76520455
22	0x3ec64ae8	0.38729024
23	0x3e11c05b	0.14233534
24	0x3f39cb37	0.72575706
25	0xbe8c6649	-0.27421787
26	0x3d26aaf5	0.04069038
27	0x3e32cee4	0.17461735
28	0x3f97f586	1.1871803
29	0x3df20b0b	0.118185125
30	0x3e0eca4d	0.13944359
31	0x3eb58476	0.35452622
32	0x3e488509	0.19581999
33	0xbf04405a	-0.5166069
34	0xbe574cca	-0.21025386
35	0xbe92f8cc	-0.28705442
36	0xbfeefd76	-1.86711
37	0x3db04436	0.0860676
38	0x3e4065f4	0.18788892
39	0x3f398877	0.72473854
40	0x3f5f0291	0.8711329
41	0x3f0f4846	0.55969656
42	0x3df40404	0.119148284
43	0x3f07ad69	0.5299898
44	0x3fd2d3fd	1.6470944
45	0x3e7a6ec6	0.24456319
46	0x3e87b31d	0.2650384
47	0x3e8649cc	0.26228178
