jetson_deploy/model.onnx (onnx, 217777 bytes, 18 tensors)

features.1.block.1.fc1.bias f4 [8]
0	0xb0ec5191	-1.7194443e-09
1	0xb11f3295	-2.3166298e-09
2	0xb92b7fa7	-0.00016355385
3	0xb10104bd	-1.8774664e-09
4	0xb0b12da1	-1.2891413e-09
5	0x32969991	1.7532132e-08
6	0xb1c26057	-5.6570957e-09
7	0x2ed4b235	9.6723e-11

features.1.block.1.fc2.bias f4 [16]
0	0x3f12d6a1	0.5735875
1	0x3f241a18	0.64102316
2	0x3ec87a0e	0.3915562
3	0xbf92c848	-1.1467371
4	0xbf389f8b	-0.72118443
5	0x3fadc5de	1.3576009
6	0xbeba9e06	-0.36448687
7	0xbefe74c3	-0.49698457
8	0x3f110661	0.5665036
9	0xbeb16bb3	-0.3465248
10	0x3f223005	0.6335452
11	0xbe6fa4ff	-0.23402785
12	0xbed99d0b	-0.42502627
13	0xbde925a5	-0.11384133
14	0x3e27427b	0.16333954
15	0xbeb49f6a	-0.35277873

features.4.block.2.fc1.bias f4 [24]
0	0xb148bd8c	-2.9211575e-09
1	0xb1d93907	-6.3220145e-09
2	0xb0a25b70	-1.1813039e-09
3	0xb190ea39	-4.2175796e-09
4	0xb1129628	-2.133115e-09
5	0xb1a47121	-4.7858895e-09
6	0xb15e8a48	-3.2383856e-09
7	0x31f425a3	7.1056134e-09
8	0xaf91f02b	-2.6545996e-10
9	0xb1cb9dbc	-5.92601e-09
10	0x3e5231d2	0.20526817
11	0xb1044d58	-1.9252493e-09
12	0xb18629d3	-3.904668e-09
13	0xb2f427b0	-2.8423386e-08
14	0x30490c48	7.3140827e-10
15	0xafbd5e87	-3.4446065e-10
16	0xb0fb31a5	-1.8276763e-09
17	0xb199d13c	-4.4766733e-09
18	0xb08ca765	-1.0233917e-09
19	0xb0aeab2d	-1.2708817e-09
20	0x312085a3	2.3359028e-09
21	0xb211121f	-8.444231e-09
22	0xb18a929c	-4.032996e-09
23	0xaef72d78	-1.12403364e-10

features.5.block.2.fc1.bias f4 [64]
0	0xbc4394b6	-0.011937311
1	0x3e8ed74c	0.27898633
2	0xbb9e7d5b	-0.004836721
3	0x3dd530e8	0.10409719
4	0x3e09e6d9	0.13466968
5	0x3ddbd164	0.107332975
6	0x3e5b6ce0	0.21428251
7	0x3e053cf6	0.13011536
8	0xbe0f1825	-0.13974054
9	0xbdd0b3c7	-0.1019054
10	0x3e46b3f5	0.19404586
11	0x3e36c011	0.17846705
12	0xbeb5576e	-0.35418266
13	0xbdb5d90e	-0.088792905
14	0x3dd768fc	0.10518071
15	0x3cd94e4e	0.026526596
16	0xbd40c242	-0.04706026
17	0x3ec7485f	0.38922402
18	0x3de36bb0	0.11104524
19	0xbcbb0730	-0.022830576
20	0x3dab3e0f	0.08361446
21	0x3d181e36	0.037138186
22	0x3de752c4	0.11295083
23	0x3ee137d8	0.43987918
24	0x3d90d454	0.070717484
25	0x3e1bd467	0.15217744
26	0x3e322904	0.17398459
27	0x3b9aee79	0.004728135
28	0x3e4b276a	0.19839254
29	0xbd3b4fc5	-0.04573037
30	0xbe10b1ef	-0.14130376
31	0x3e167a01	0.14694978
32	0xbdad090e	-0.08448993
33	0xbc39972c	-0.011327546
34	0x3deb1b28	0.11479789
35	0x3ddd1987	0.107958846
36	0xbccb0fb8	-0.024787769
37	0x3e9400f8	0.2890699
38	0xbc859ad9	-0.016309189
39	0xbd62e163	-0.055390727
40	0x3f12ca47	0.573399
41	0x3e66ca8e	0.22538206
42	0x3e5677cb	0.20944135
43	0x3dc4a010	0.09600842
44	0x3e97a3b6	0.2961709
45	0x3cfa95c1	0.030588986
46	0xbdb5b27d	-0.088719346
47	0x3c9dd700	0.019267559
48	0xbcba5eeb	-0.022750339
49	0x3e0ef6fe	0.13961408
50	0xbdc9ba07	-0.09849935
51	0x3d8ce72d	0.06880031
52	0x3c99ff9e	0.018798646
53	0x3c916a86	0.01775099
54	0x3e557720	0.20846224
55	0x3e07bc6b	0.1325547
56	0xbd033bb0	-0.032039344
57	0x3d65b032	0.056076236
58	0x3f088faa	0.53344214
59	0x3e834d90	0.25645113
60	0x3d8066aa	0.062695816
61	0x3d5ae6bd	0.053442705
62	0xbca8469f	-0.020541487
63	0x3e1d8c00	0.15385437

features.6.block.2.fc1.bias f4 [64]
0	0x3c38b1b6	0.011272838
1	0x3d94989c	0.072556704
2	0xbd49eff7	-0.049301114
3	0x3e654e63	0.22393183
4	0x3e12e591	0.14345385
5	0x3e33dbe4	0.1756435
6	0x3c8d8738	0.017276391
7	0xbcd6d9b8	-0.026226863
8	0x3e3f7abf	0.18699168
9	0x3e8f4a16	0.2798621
10	0x3d9c73ef	0.076393
11	0x3e130c41	0.14360143
12	0x3df8dd79	0.121516176
13	0x3db29ba2	0.08721091
14	0xbc4ce064	-0.012504671
15	0xbd227095	-0.039658148
16	0x3ca51307	0.020150675
17	0x3e64f0a3	0.2235742
18	0x3eb6c89a	0.35699922
19	0x3e9dc820	0.30816746
20	0xbd3a5a3c	-0.04549621
21	0x3e1f5efa	0.15563574
22	0x3d8608d4	0.065446526
23	0x3e16a0d3	0.14709787
24	0xbd8d5996	-0.06901853
25	0x3e6f65f7	0.2337874
26	0x3d915fba	0.070983365
27	0x3bae00b3	0.005310142
28	0x3d8ad10b	0.06778153
29	0x3e635f30	0.2220428
30	0xbe183684	-0.14864546
31	0x3ce7bcba	0.028288234
32	0xbd66aa0c	-0.056314513
33	0x3d7c049e	0.06152784
34	0x3cb95b57	0.022626562
35	0x3df35541	0.11881495
36	0x3f1f3b3f	0.6219978
37	0x3e23e03d	0.16003509
38	0x3d99a043	0.075012706
39	0x3e640ed6	0.22271284
40	0x3e3e27fd	0.18569942
41	0x3da2885f	0.07936167
42	0x3d1c59ed	0.038171697
43	0x3e16db69	0.14732136
44	0x3e4ed6cd	0.20199127
45	0x3e882ea4	0.26598084
46	0x3ca78565	0.02044935
47	0x3ded551b	0.11588498
48	0x3dda28d3	0.10652318
49	0x3cfeb240	0.031090856
50	0x3dde5072	0.108551875
51	0x3ea705d4	0.32621634
52	0xbd0abc0d	-0.033870745
53	0xbe297bd0	-0.16551137
54	0xbe7d99f5	-0.24765761
55	0x3eb4196a	0.3517564
56	0x3cbebf23	0.0232845
57	0x3d9c7295	0.07639042
58	0x3d5c5019	0.053787325
59	0x3d35d91e	0.044396512
60	0x3e01ad15	0.12663682
61	0x3e693eca	0.22777858
62	0x3cd634fa	0.026148308
63	0x3d2e19fe	0.042505257

features.7.block.2.fc1.bias f4 [32]
0	0x2f2ffe88	1.6006585e-10
1	0xb184e51c	-3.8677523e-09
2	0xb21c28f5	-9.089708e-09
3	0xb445185f	-1.8355921e-07
4	0xb466f0dc	-2.1508043e-07
5	0x306ed07d	8.6880175e-10
6	0xb31b23c9	-3.6121296e-08
7	0xb204c98d	-7.729239e-09
8	0x32e26ccd	2.635934e-08
9	0x3d255e70	0.040373266
10	0xbbc52276	-0.006016071
11	0xb2ed9b73	-2.7661121e-08
12	0x3e9e3a45	0.3090383
13	0x32b61b2b	2.1199943e-08
14	0x32810649	1.5020435e-08
15	0x3d122cb5	0.035687167
16	0xb5ebb3b1	-1.7561161e-06
17	0x32aee795	2.0361577e-08
18	0xbd7306ef	-0.059332784
19	0x32efa69f	2.7899032e-08
20	0x3cb1c487	0.021700157
21	0x32208668	9.343786e-09
22	0xbd0bb59d	-0.034108747
23	0xb355f4bd	-4.9815515e-08
24	0xb2a1bc61	-1.8828532e-08
25	0x30a8a523	1.2270543e-09
26	0xb304abb1	-3.0889797e-08
27	0xb20e0d91	-8.2685725e-09
28	0xb0fa9330	-1.8231727e-09
29	0x31959f98	4.3546144e-09
30	0x3d53b26c	0.05168383
31	0x329491a1	1.7295692e-08

features.8.block.2.fc1.bias f4 [40]
0	0x3e31c4b6	0.17360196
1	0x3d9e570f	0.07731449
2	0x3ea6dbec	0.32589662
3	0x3f04c469	0.518622
4	0x3dabba43	0.08385136
5	0x3e6a8b2f	0.22904657
6	0x3dfffe93	0.12499728
7	0x3e43d96a	0.19125906
8	0x3df12b9f	0.11775898
9	0xbd149e76	-0.036283933
10	0x3d6e79e3	0.05822171
11	0x3e0957e9	0.13412441
12	0x3eba66da	0.36406595
13	0x3e861336	0.26186532
14	0x3e9d5b89	0.30733898
15	0x3e8c7eea	0.27440578
16	0x3d9e81be	0.0773959
17	0x3e8efbf8	0.27926612
18	0x3e851063	0.25989065
19	0x3cbdbf2f	0.023162453
20	0x3e0a663d	0.13515563
21	0x3e656260	0.22400808
22	0x3ecfa601	0.40556338
23	0x3f05988c	0.52185893
24	0x3e9c034a	0.3047126
25	0x3db7fb25	0.08983449
26	0x3e8eec34	0.27914584
27	0x3e9442cc	0.28957212
28	0x3ee1874f	0.44048545
29	0x3d84c888	0.06483561
30	0x3e78a1d1	0.24280478
31	0x3e45271a	0.19253197
32	0x3ef8bb29	0.48580292
33	0x3da3ee87	0.0800448
34	0x3e10623e	0.14099976
35	0x3eac553d	0.33658782
36	0x3e83aa54	0.25715888
37	0x3ec9d52f	0.3942046
38	0x3eb5a969	0.35480812
39	0x3e64e194	0.22351676

classifier.3.bias f4 [9]
0	0xbc8f9308	-0.017526165
1	0xbcb44602	-0.022006039
2	0xbb882957	-0.0041553187
3	0x3c71efbd	0.014766631
4	0xbcb72fa8	-0.022361591
5	0x3c0c68f5	0.008569946
6	0xbcac6387	-0.021043552
7	0xbc0629dc	-0.008188691
8	0x3c07f492	0.008298056

input_bias f4 [16]
0	0x40852ee6	4.161975
1	0x4021c1e6	2.5274596
2	0x401b9e2c	2.431529
3	0xc0336eff	-2.8036497
4	0x4031ba60	2.7770004
5	0x402f3708	2.7377338
6	0x3e86c0ba	0.26318914
7	0xbc6d5846	-0.014486378
8	0x402afed4	2.6718035
9	0x4030a9a6	2.7603545
10	0x4048714f	3.1319158
11	0xbf54e66e	-0.8316411
12	0x3ead8f19	0.33898237
13	0x3efa5a4e	0.48897022
14	0x3f8cf3c9	1.1011897
15	0xc00add6f	-2.1697652

hardswish_bias f4 [16]
0	0x3ec83cae	0.39108795
1	0x3fe47280	1.7847443
2	0x405195a2	3.2747579
3	0x3e9c4e38	0.30528426
4	0x3e4694e1	0.1939273
5	0x40462b80	3.096405
6	0x3e3d2b7e	0.18473622
7	0x3f2c11fa	0.6721493
8	0x3ff4a485	1.9112707
9	0x3ec5b736	0.3861634
10	0x3e9e0038	0.30859542
11	0x3e60d6b0	0.21956897
12	0x3e8b85e9	0.27250603
13	0x3e86b43b	0.2630938
14	0x3d9a4cb8	0.07534164
15	0x3fd49b5c	1.6609912

mul_5_bias f4 [16]
0	0x40989aff	4.7689204
1	0xc0df9f43	-6.988191
2	0xc07f6a36	-3.9908576
3	0xc02d5b54	-2.7086992
4	0xbf7b703b	-0.98218125
5	0x3e9e8063	0.30957326
6	0xc0a34320	-5.101944
7	0xbf0d8b3b	-0.55290574
8	0xc11c94c0	-9.786316
9	0xc07adde7	-3.9197938
10	0x3ef46c83	0.47739038
11	0xc0290745	-2.6410687
12	0xc063ace8	-3.5574284
13	0xc011d946	-2.2788863
14	0xbf87bf17	-1.0605191
15	0x40497dfe	3.148315

relu_3_bias f4 [24]
0	0xbf1afd37	-0.60542625
1	0xbf91aacd	-1.1380249
2	0x40809224	4.0178394
3	0xbf2f7181	-0.6853257
4	0xbfe264a1	-1.768696
5	0xc01f25bb	-2.486678
6	0x3fb17d49	1.3866359
7	0x40b6d4a7	5.7134585
8	0xc05a121c	-3.4073553
9	0xbfabdbba	-1.342643
10	0xbda80995	-0.082049526
11	0x4001f71b	2.0307071
12	0x3ea4f64f	0.3221917
13	0x3f77764a	0.9666487
14	0x402c39ab	2.6910198
15	0x3fe992eb	1.8247961
16	0x40371127	2.860422
17	0x3d913936	0.0709099
18	0x4020f3e1	2.5148852
19	0x40066b9f	2.1003187
20	0xbfbe2c5d	-1.4857289
21	0xbf7706ab	-0.9649455
22	0xbda30de3	-0.07961633
23	0xc06f6839	-3.7407362

relu_5_bias f4 [24]
0	0xc088dfa7	-4.2773013
1	0x3f028ae0	0.50993156
2	0x3fd870da	1.690944
3	0x3eee8de8	0.4659264
4	0x3f271848	0.65271425
5	0x404fe41e	3.2482982
6	0xbf347469	-0.7049013
7	0x400202c4	2.0314188
8	0xbed3c3f3	-0.41360435
9	0xbe923287	-0.28554174
10	0x3e355ae9	0.1771046
11	0xbf52186a	-0.820685
12	0xbfab11dc	-1.3364825
13	0xbff2153f	-1.8912734
14	0xbf8d849e	-1.1056097
15	0x3fa5bb21	1.2947732
16	0xc001ca79	-2.027983
17	0xc022a741	-2.5414584
18	0x3f09b78a	0.53795683
19	0xc03c4a2f	-2.9420278
20	0xbec9cd11	-0.39414266
21	0x3e8c9083	0.27454004
22	0x3fba51ea	1.4556248
23	0xbe73954e	-0.23787424

mul_6_bias f4 [40]
0	0x3c8cfe11	0.017210992
1	0xbfe21013	-1.7661155
2	0xbeeadf18	-0.45873332
3	0xc01e8241	-2.4767
4	0x3f4dad7e	0.80342853
5	0x3fa3b32e	1.2789056
6	0xbf2c2c92	-0.6725551
7	0xbf449775	-0.76793605
8	0x3fe58952	1.7932532
9	0x3f10561f	0.5638141
10	0x3f4e1364	0.8049834
11	0x3fae7772	1.3630202
12	0xbf0825b7	-0.5318255
13	0xc055e112	-3.3418622
14	0x40153980	2.3316345
15	0xbd9b237f	-0.0757513
16	0x402516da	2.5795197
17	0xc0a148ef	-5.040153
18	0x40592a21	3.3931963
19	0x3f065605	0.52475005
20	0xbe076fae	-0.13226196
21	0xbf71293d	-0.9420355
22	0x3eee76c4	0.46574986
23	0xc001738f	-2.0226781
24	0x3ef1d367	0.472316
25	0x3f325279	0.69657093
26	0x3fc2a04e	1.5205171
27	0xbf1d6d33	-0.6149475
28	0xbf96e628	-1.1788988
29	0x4032fede	2.7968059
30	0x3eb026d7	0.34404632
31	0xbf1fa7ed	-0.6236561
32	0xbf003b50	-0.50090504
33	0x3f954c6a	1.1663945
34	0xc02ea9bb	-2.7291095
35	0xbdc4036e	-0.09570967
36	0xbff05068	-1.8774538
37	0x3fb797d5	1.434321
38	0xbf5c8e6a	-0.86154807
39	0xbf25fe22	-0.648409

mul_7_bias f4 [40]
0	0xbece7b7e	-0.40328592
1	0x3f7ec740	0.9952278
2	0xbe48d1d8	-0.19611299
3	0x3f276dde	0.6540202
4	0x3ea2fd5a	0.31833917
5	0xbed8efc6	-0.42370433
6	0xbee8721b	-0.45399556
7	0xbf325d12	-0.69673264
8	0xbf4fc492	-0.8115932
9	0xbd3d04cc	-0.046147153
10	0x3dbf9a18	0.09355563
11	0xbee542f8	-0.44777656
12	0x3ee1087f	0.43951795
13	0xbf82b900	-1.0212708
14	0x3f3a081f	0.7266864
15	0x3fd06dcd	1.6283509
16	0x3e2975d9	0.16548862
17	0x3e90dbf2	0.28292805
18	0x3e1571aa	0.1459414
19	0xbee9a604	-0.45634472
20	0xbd9b553e	-0.07584618
21	0x3cfb68ca	0.030689616
22	0xbecc2191	-0.3986936
23	0x3ed097cc	0.40740812
24	0xbf31600c	-0.6928718
25	0xbfbf25ff	-1.493347
26	0x402001c2	2.5001073
27	0x3f9af232	1.2105162
28	0xbcb65e62	-0.022261802
29	0x3f7bf423	0.984194
30	0x3e756b03	0.23966603
31	0x3e5b5139	0.21417703
32	0xbf18b70a	-0.59654295
33	0x3e8b944d	0.27261582
34	0xbf9111ea	-1.1333592
35	0x3f483167	0.7820038
36	0x3eab7104	0.33484662
37	0xbf92eb66	-1.1478088
38	0x3e79d86e	0.24398968
39	0x3f9c2a55	1.2200419

mul_8_bias f4 [40]
0	0x408c7e22	4.390397
1	0xbdaa1acb	-0.083058916
2	0xbfd1ac9a	-1.6380799
3	0xbf5323b3	-0.8247635
4	0xbedbc828	-0.42926145
5	0xbea035b8	-0.31290984
6	0x3ebc4073	0.3676792
7	0xbf96d32c	-1.1783195
8	0xbf19143b	-0.59796494
9	0xbe31c35a	-0.17359677
10	0xbefbd0bf	-0.49182698
11	0x3da6a78f	0.08137428
12	0x3e70e8ce	0.23526308
13	0xbf4a0b25	-0.78923255
14	0x3ed24089	0.4106486
15	0x3ea65fff	0.32495114
16	0xbec891e0	-0.39173794
17	0xbe0aa89e	-0.13540885
18	0xc005fd8d	-2.0936005
19	0xbf5f3706	-0.87193334
20	0x3ff549f5	1.9163195
21	0x3f253d34	0.64546514
22	0x3fd4b420	1.661747
23	0xbfa42286	-1.2823036
24	0x3c329cdf	0.010901659
25	0x3f4c53c4	0.79815316
26	0x405fb4c2	3.4954076
27	0x3f25cc44	0.6476481
28	0x408b5e4e	4.355262
29	0x3f84e6a9	1.0382892
30	0xbf9636ec	-1.1735511
31	0xbf5164ee	-0.8179463
32	0x3f05b004	0.52221704
33	0x3ffea907	1.9895333
34	0xbf8da8d5	-1.1067148
35	0x3f99fe8d	1.2030808
36	0xbbe9f4d2	-0.0071397806
37	0xbff271cb	-1.8940977
38	0xbe3c2bc0	-0.18376064
39	0xbf942dad	-1.1576439

mul_9_bias f4 [48]
0	0x3e62325c	0.22089523
1	0xbe8b7109	-0.27234676
2	0x3e97e39e	0.29665846
3	0xc001cf7e	-2.0282893
4	0xbf0d26e9	-0.551375
5	0xbed61b14	-0.41817534
6	0xbdfa404e	-0.122192964
7	0xbf3df50e	-0.7420205
8	0x40245de2	2.5682302
9	0xba38d8ea	-0.00070513657
10	0xbee18006	-0.44042987
11	0x3f431e3f	0.76218027
12	0xc059cd62	-3.4031606
13	0x3e6074fd	0.21919627
14	0x3e72be9d	0.23705526
15	0x3e37c1c8	0.17945015
16	0xbf46fbdb	-0.7772805
17	0xbf540d8e	-0.8283318
18	0xbf76e9ff	-0.964508
19	0xbe1541ee	-0.14575931
20	0xbf98474e	-1.189676
21	0x3f8e8055	1.1132914
22	0xbf238243	-0.6387064
23	0xbeebd27c	-0.46059024
24	0x3f5fdb70	0.8744421
25	0x3f0c6b7d	0.54851514
26	0x3f716c6b	0.9430606
27	0x3f005f10	0.50145054
28	0xbfa7cf5a	-1.3110154
29	0xbd6daaf7	-0.058024373
30	0xbe143119	-0.14471854
31	0xbfa755bd	-1.307304
32	0x3dcfc27a	0.10144515
33	0xbf97081f	-1.1799353
34	0xbe6f0a88	-0.23343861
35	0x3f56b664	0.83872056
36	0xbfcf93fc	-1.6217036
37	0xbfc7e72c	-1.5617423
38	0x3f7ef7e5	0.9959701
39	0x3f3a7dab	0.72848004
40	0x3f635356	0.88799036
41	0xbf0a157b	-0.53939027
42	0x3e4a5116	0.19757494
43	0xbf4c6bfa	-0.7985226
44	0xbf758c73	-0.95917434
45	0x3e63b3a4	0.22236496
46	0xbfb37ab9	-1.4021827
47	0xbf088b0a	-0.53337157

mul_10_bias f4 [48]
0	0x4004baca	2.0739007
1	0xbdd2d668	-0.10294801
2	0xbf091cb9	-0.5355945
3	0x3f309bb8	0.6898761
4	0xbfb36e8b	-1.401811
5	0x3f155c8c	0.5834434
6	0xbe91a47d	-0.28445807
7	0xbed17a0b	-0.40913424
8	0x40200405	2.5002453
9	0xbe2cace4	-0.16862828
10	0x3caa82bf	0.020814298
11	0x3f1d5a20	0.61465645
12	0xbe488a76	-0.19584069
13	0xbf90c9bb	-1.1311563
14	0xbe7ad2a3	-0.24494414
15	0x3eaa8df1	0.33311418
16	0xbee6287e	-0.44952768
17	0x3e970096	0.29492635
18	0x3e3d43b3	0.18482856
19	0x3ddf7854	0.10911623
20	0xbe4701cf	-0.19434284
21	0xbf46d345	-0.7766612
22	0x3ebc7040	0.3680439
23	0x3e01c08a	0.12671104
24	0x3f43470d	0.7628029
25	0xbe77d2cd	-0.24201508
26	0x3d592e46	0.053022645
27	0x3e2bb1e1	0.16767074
28	0x3f85a45d	1.0440785
29	0x3dfd756a	0.123759106
30	0x3e046796	0.1293014
31	0x3eb81ff7	0.35961887
32	0x3e531e17	0.20616947
33	0xbef84db7	-0.48496792
34	0xbe37360e	-0.17891714
35	0xbea02fd4	-0.3128649
36	0xbfe4d64b	-1.7877897
37	0x3d9d9476	0.07694332
38	0x3e397f69	0.1811501
39	0x3f3bd80d	0.7337654
40	0x3f5d046a	0.8633486
41	0x3f0f1fa1	0.55907637
42	0x3e002904	0.12515646
43	0x3efb7ec4	0.49120152
44	0x3fc76e9a	1.5580628
45	0x3e81586e	0.2526278
46	0x3e8e0f2c	0.2774595
47	0x3e816a57	0.25276443
