jetson_deploy/model.onnx (onnx, 217777 bytes, 18 tensors)

features.1.block.1.fc1.bias f4 [8]
000000 91 51 ec b0 95 32 1f b1 a7 7f 2b b9 bd 04 01 b1
       -1.7194443e-09 -2.3166298e-09 -0.00016355385 -1.8774664e-09
000010 a1 2d b1 b0 91 99 96 32 57 60 c2 b1 35 b2 d4 2e
       -1.2891413e-09 1.7532132e-08 -5.6570957e-09 9.6723e-11

features.1.block.1.fc2.bias f4 [16]
000000 b3 56 11 3f 7e 53 24 3f 06 3c c7 3e f6 73 92 bf
       0.5677292 0.641899 0.38912982 -1.1441638
000010 b8 0d 37 bf 0d 2c ad 3f 13 ba b7 be 6c 29 fc be
       -0.7150531 1.3529068 -0.3588415 -0.49250352
000020 a5 3a 11 3f 8c 35 b2 be 57 32 22 3f 2c 56 77 be
       0.5673011 -0.34806478 0.6335806 -0.24153966
000030 82 0e e0 be 34 a0 d6 bd 30 61 2a 3e 3a 0b b6 be
       -0.4376107 -0.10479775 0.16638637 -0.3555544

features.4.block.2.fc1.bias f4 [24]
000000 8c bd 48 b1 07 39 d9 b1 70 5b a2 b0 39 ea 90 b1
       -2.9211575e-09 -6.3220145e-09 -1.1813039e-09 -4.2175796e-09
000010 28 96 12 b1 21 71 a4 b1 48 8a 5e b1 a3 25 f4 31
       -2.133115e-09 -4.7858895e-09 -3.2383856e-09 7.1056134e-09
000020 2b f0 91 af bc 9d cb b1 58 9d 4c 3e 58 4d 04 b1
       -2.6545996e-10 -5.92601e-09 0.19981897 -1.9252493e-09
000030 d3 29 86 b1 b0 27 f4 b2 48 0c 49 30 87 5e bd af
       -3.904668e-09 -2.8423386e-08 7.3140827e-10 -3.4446065e-10
000040 a5 31 fb b0 3c d1 99 b1 65 a7 8c b0 2d ab ae b0
       -1.8276763e-09 -4.4766733e-09 -1.0233917e-09 -1.2708817e-09
000050 a3 85 20 31 1f 12 11 b2 9c 92 8a b1 78 2d f7 ae
       2.3359028e-09 -8.444231e-09 -4.032996e-09 -1.12403364e-10

features.5.block.2.fc1.bias f4 [64]
000000 c2 c1 3e bc 84 fc 90 3e 59 1b 6e 3a c8 12 da 3d
       -0.011642875 0.28317654 0.00090830546 0.106481135
000010 e3 82 03 3e 65 11 dd 3d 4a bc 5a 3e ec f6 01 3e
       0.12842898 0.10794333 0.21360889 0.1269185
000020 29 93 0f be e9 97 d6 bd e2 73 4b 3e 0e 48 37 3e
       -0.14020981 -0.10478193 0.19868425 0.1789858
000030 61 8c b5 be af 9a ad bd d6 cb e2 3d a6 10 b5 3c
       -0.35458663 -0.08476769 0.11074035 0.022102665
000040 95 2c 51 bd 3c 49 c8 3e c0 f8 e1 3d f4 0a 9b bc
       -0.051067907 0.39118373 0.110337734 -0.018926121
000050 4a 97 a6 3d 1c 2d 1e 3d d3 4d dd 3d 61 88 e1 3e
       0.08134325 0.03861724 0.108058594 0.4404936
000060 f3 fc 8f 3d b0 45 1d 3e 91 38 2d 3e 64 f1 26 3b
       0.07030668 0.15358615 0.1691611 0.002547347
000070 88 e1 4c 3e d0 d9 2e bd c6 38 10 be 2c e2 16 3e
       0.20007908 -0.04268819 -0.14084157 0.14734715
000080 05 55 a8 bd b3 2a 4f bc 19 9e e3 3d 92 44 d8 3d
       -0.08219341 -0.012644458 0.11114139 0.10559954
000090 1f c5 c4 bc e4 33 92 3e a5 99 8b bc cd 38 83 bd
       -0.024019776 0.28555214 -0.017041037 -0.06407318
0000a0 97 26 13 3f 8e a8 66 3e cf eb 60 3e 8f 8a cc 3d
       0.5748076 0.22525236 0.21964954 0.099873655
0000b0 f0 c7 98 3e 28 d5 0b 3d fc 68 bf bd 25 28 c9 3c
       0.2984004 0.03413883 -0.09346196 0.024555275
0000c0 ea b6 c4 bc 34 65 12 3e 14 96 c6 bd 92 9c 84 3d
       -0.024013001 0.14296418 -0.09696594 0.06475176
0000d0 cb ed aa 3c 96 89 9c 3c 02 6f 52 3e 3c b6 05 3e
       0.020865342 0.019108575 0.20550159 0.13057798
0000e0 da 19 09 bd 09 22 4e 3d 41 11 0a 3f c1 9e 85 3e
       -0.03347192 0.050325427 0.5393258 0.26097682
0000f0 76 c4 7d 3d 14 3b 65 3d e9 81 8e bc 8c 00 1a 3e
       0.061954938 0.055964544 -0.01739593 0.15039271

features.6.block.2.fc1.bias f4 [64]
000000 78 9f 40 3c 13 1f 99 3d 00 bd 3c bd 67 af 68 3e
       0.01175677 0.0747663 -0.046078682 0.2272316
000010 84 b8 12 3e d2 29 31 3e a2 ae ab 3c 6f e7 cd bc
       0.143282 0.1730111 0.020957295 -0.02513477
000020 d7 05 3e 3e a1 54 8d 3e dc 43 8a 3d f8 75 17 3e
       0.18556915 0.2760363 0.067512244 0.14791095
000030 76 be f2 3d 59 23 ab 3d 17 56 8c bc 74 e0 23 bd
       0.11852734 0.083563514 -0.017130895 -0.040008977
000040 fb 8c 8c 3c 69 25 5a 3e 57 ea b4 3e 19 61 9e 3e
       0.017157068 0.21303333 0.35335037 0.30933455
000050 c9 da 39 bd 4a c8 1e 3e 2e 7a 8e 3d 19 2d 13 3e
       -0.045374665 0.15506092 0.06956898 0.14372672
000060 a0 76 95 bd f5 c6 74 3e 0e 9c 8f 3d 7d 05 49 3b
       -0.072980165 0.23904021 0.07012187 0.0030673437
000070 20 7e 87 3d e0 de 63 3e 6b 48 16 be 34 50 fc 3c
       0.06615853 0.22252989 -0.14676063 0.030799963
000080 5c 11 6f bd 40 be 73 3d 66 f0 d6 3c 4e 90 fa 3d
       -0.058366165 0.05950761 0.026237678 0.12234555
000090 19 75 1e 3f 75 93 22 3e 18 9d 94 3d ec 0f 63 3e
       0.61897427 0.15876563 0.07256526 0.22174042
0000a0 24 1c 3e 3e ca 4a ad 3d 63 50 14 3d 72 18 1e 3e
       0.18565422 0.084615305 0.036209475 0.15439013
0000b0 a3 2f 51 3e fe 44 87 3e d1 9e 9e 3c 57 04 e2 3d
       0.20428328 0.26419824 0.019362839 0.11035984
0000c0 a8 77 d8 3d f6 f3 29 3d 68 07 e0 3d ed 2d a9 3e
       0.105696976 0.041492425 0.10938913 0.3304285
0000d0 ed 4e f6 bc 0e c7 2a be e9 e4 7c be c5 a5 b2 3e
       -0.030066932 -0.16677496 -0.24696697 0.34892097
0000e0 f7 72 db 3c 41 30 92 3d 51 ad 49 3d 7b 58 2f 3d
       0.026788218 0.0713811 0.049237553 0.04280899
0000f0 43 da 05 3e 62 de 64 3e df d8 fa 3c 33 b5 21 3d
       0.13071541 0.22350457 0.03062099 0.039479446

features.7.block.2.fc1.bias f4 [32]
000000 88 fe 2f 2f 1c e5 84 b1 f5 28 1c b2 5f 18 45 b4
       1.6006585e-10 -3.8677523e-09 -9.089708e-09 -1.8355921e-07
000010 dc f0 66 b4 7d d0 6e 30 c9 23 1b b3 8d c9 04 b2
       -2.1508043e-07 8.6880175e-10 -3.6121296e-08 -7.729239e-09
000020 cd 6c e2 32 b0 3c 29 3d 91 8b cc bb 73 9b ed b2
       2.635934e-08 0.04131764 -0.0062422235 -2.7661121e-08
000030 22 ca 9f 3e 2b 1b b6 32 49 06 81 32 01 4b 0f 3d
       0.31208903 2.1199943e-08 1.5020435e-08 0.03498364
000040 b1 b3 eb b5 95 e7 ae 32 9c cb 7b bd 9f a6 ef 32
       -1.7561161e-06 2.0361577e-08 -0.061473474 2.7899032e-08
000050 ec 01 6f 3c 68 86 20 32 ed 9b 01 bd bd f4 55 b3
       0.014587861 9.343786e-09 -0.031642843 -4.9815515e-08
000060 61 bc a1 b2 23 a5 a8 30 b1 ab 04 b3 91 0d 0e b2
       -1.8828532e-08 1.2270543e-09 -3.0889797e-08 -8.2685725e-09
000070 30 93 fa b0 98 9f 95 31 fa d4 32 3d a1 91 94 32
       -1.8231727e-09 4.3546144e-09 0.04366014 1.7295692e-08

features.8.block.2.fc1.bias f4 [40]
000000 e2 58 36 3e dd 5d b3 3d 56 ac a6 3e 22 91 03 3f
       0.17807344 0.087581374 0.32553357 0.5139333
000010 00 d7 b3 3d 51 2d 71 3e d8 b8 02 3e 50 1d 3e 3e
       0.08781242 0.23552443 0.12765825 0.1856587
000020 48 47 ed 3d fe 41 15 bd 54 1e 71 3d 2f a9 0a 3e
       0.115858614 -0.03643989 0.058866814 0.13541101
000030 f1 2b b7 3e cc b7 85 3e 4a 12 9d 3e 22 ff 8c 3e
       0.35775712 0.26116788 0.30678016 0.275384
000040 72 6f 96 3d 4f 22 90 3e 76 14 86 3e 4e a9 df 3c
       0.07345475 0.28151175 0.26187485 0.02730241
000050 e0 a3 0a 3e f7 63 66 3e 3f 35 d0 3e 2d c2 06 3f
       0.13539076 0.22499071 0.40665624 0.5264004
000060 19 45 9c 3e 04 7e bb 3d aa ff 8b 3e 92 ab 91 3e
       0.30521467 0.09154895 0.27343494 0.2845121
000070 db f2 e4 3e b7 fa 71 3d 1f e4 7b 3e 20 68 44 3e
       0.44716534 0.05907699 0.2459874 0.19180346
000080 f1 e3 f6 3e 57 13 b2 3d 8b ea 14 3e d1 9c af 3e
       0.4822078 0.08695095 0.14542596 0.3429933
000090 87 08 86 3e 02 05 ca 3e e1 06 b6 3e 33 88 60 3e
       0.2617838 0.39456946 0.35552123 0.21926956

classifier.3.bias f4 [9]
000000 79 f6 7b 3c f0 79 e9 bc 43 dc 85 3a 39 2a 81 3c
       0.015378588 -0.028500527 0.0010212738 0.015767204
000010 9b 8c 92 3c dd 9f 2c 3c 2c cb af 3c c0 4e a5 bc
       0.017889312 0.010536161 0.021459185 -0.020179152
000020 3c 7b 8b bc
       -0.017026536

input_bias f4 [16]
000000 e6 fd a4 40 75 24 21 40 a0 2d 19 bf 62 58 3e c0
       5.1559935 2.5178502 -0.59835243 -2.9741445
000010 26 7f 30 40 9d 73 2f 40 ac 01 87 3e b6 c8 aa bc
       2.7577605 2.7414315 0.26368463 -0.02084766
000020 f6 ba 2a 40 00 a0 b2 3c 0a 9d 85 c0 a4 30 78 bf
       2.6676612 0.02180481 -4.17542 -0.9694922
000030 6a cd b5 3e 92 7b f6 3e ad e6 8b 3f 19 40 f5 bf
       0.3550828 0.48141152 1.0929772 -1.9160186

hardswish_bias f4 [16]
000000 a8 09 c6 3e c6 e3 e3 3f 10 e9 85 40 55 23 a9 3e
       0.38679242 1.7803886 4.1847 0.3303477
000010 03 2d 3c 3e 1f d2 45 40 2a 36 43 3e eb a2 1b 3f
       0.18376546 3.0909498 0.1906363 0.6079547
000020 bc 27 f6 3f 81 8c d7 3e 00 c8 b2 3a c8 74 60 3e
       1.9230876 0.42099383 0.0013639927 0.21919549
000030 92 3e 9c 3e b2 81 82 3e f2 90 90 3d 7b fa d4 3f
       0.30516487 0.25489575 0.07058896 1.663894

mul_5_bias f4 [16]
000000 26 48 90 40 31 be e9 c0 f6 20 79 c0 f9 aa 28 c0
       4.508807 -7.3044667 -3.8926368 -2.6354353
000010 7d 14 a8 bf d4 72 c1 3e c5 14 89 c0 7a ec 00 bf
       -1.3131253 0.3778292 -4.2837853 -0.50360835
000020 bc 98 14 c1 a2 22 7d c0 06 92 e4 3e 36 0d 2c c0
       -9.287289 -3.9552388 0.44642657 -2.6883063
000030 08 5d 55 c0 37 2f 14 c0 68 3f 80 bf fb ca 42 40
       -3.3338032 -2.3153818 -1.001935 3.043639

relu_3_bias f4 [24]
000000 c9 31 11 bf 74 44 a2 bf 02 b1 81 40 59 11 15 bf
       -0.5671659 -1.267714 4.0528574 -0.58229595
000010 37 04 fa bf 60 0b 20 c0 38 96 9e 3f f7 61 bb 40
       -1.9532536 -2.5006943 1.2389593 5.8557086
000020 9a 61 47 c0 7c 9a ab bf 07 be de bd e1 3d fe 3f
       -3.1153321 -1.340652 -0.108760886 1.9862634
000030 4d f7 32 3e 39 16 7d 3f 4b 6e 28 40 e3 0b cf 3f
       0.1747715 0.98862034 2.6317317 1.6175503
000040 32 0a 3b 40 0f 02 bb 3d 99 36 1e 40 d6 7c eb 3f
       2.9224973 0.09131252 2.4720824 1.8397472
000050 79 7a cd bf 80 6c 7a bf 1f 1d 7d bd 87 ea 61 c0
       -1.6053001 -0.9782181 -0.06179535 -3.5299394

relu_5_bias f4 [24]
000000 8c ad 8b c0 b9 c9 c9 3e cb b3 cc 3f d5 48 b0 3e
       -4.364935 0.39411715 1.5992368 0.34430566
000010 7a f3 24 3f 6b 5e 51 40 c9 81 45 bf 08 94 00 40
       0.64434016 3.2713878 -0.7715116 2.009035
000020 9d 2c f6 be 16 eb 8b be fa b9 2e 3e 43 68 41 bf
       -0.48080912 -0.27327794 0.17063132 -0.75549716
000030 41 7e a9 bf 2e 08 e7 bf ed 14 81 bf 4c 3c b0 3f
       -1.3241655 -1.8049371 -1.0084511 1.3768401
000040 ae 73 f6 bf 5c 49 23 c0 d6 82 06 3f 03 d1 40 c0
       -1.9254053 -2.5513525 0.5254339 -3.012757
000050 b3 b3 cd be e2 11 9b 3e 54 72 b7 3f 66 ed 78 be
       -0.40176162 0.3028708 1.4331765 -0.2430931

mul_6_bias f4 [40]
000000 18 43 4f 3d f3 cb e5 bf b9 f6 04 bf 52 99 14 c0
       0.050601095 -1.7952865 -0.5193897 -2.321858
000010 86 73 40 3f b6 a7 a5 3f 43 d8 1c bf cc 93 53 bf
       0.75176275 1.2941806 -0.6126749 -0.82647395
000020 d3 79 e2 3f bf a6 00 3f 77 b1 41 3f 6e ee a5 3f
       1.7693428 0.50254434 0.75661415 1.2963388
000030 06 ea 0e bf a8 e6 57 c0 7a 7c 15 40 98 31 8f bd
       -0.5582584 -3.3734531 2.3357224 -0.06991881
000040 3c a9 22 40 d1 b6 91 c0 f6 4e 5a 40 d3 24 f0 3e
       2.5415792 -4.5535665 3.4110694 0.46903095
000050 10 cb 26 be 6d 17 55 bf d7 08 c1 3e 67 20 04 c0
       -0.162884 -0.8323887 0.37702057 -2.0644777
000060 0c 84 07 3f f6 c8 0a 3f a9 a4 be 3f 60 c9 42 bf
       0.5293586 0.5421289 1.4894 -0.76088524
000070 80 f4 96 bf 58 3f 4b 40 17 df 60 3f 62 ce 06 bf
       -1.1793365 3.1757412 0.8784041 -0.52658665
000080 e3 0a df be f6 b6 9b 3f a8 fd 36 c0 be d9 87 bd
       -0.43562993 1.216521 -2.859232 -0.06633328
000090 e0 91 f4 bf c9 76 ba 3f 76 2f 43 bf 20 7a 25 bf
       -1.9107018 1.45675 -0.76244295 -0.6463947

mul_7_bias f4 [40]
000000 68 75 da be ff 58 5b 3f 49 76 6f be d5 da 0a 3f
       -0.426677 0.8568267 -0.23384966 0.5424016
000010 db 3e b0 3e 6a 60 e0 be 91 d8 e8 be 83 48 6a bf
       0.34422955 -0.43823558 -0.45477727 -0.91516894
000020 22 8f 48 bf 3d 0d 53 bc fe 88 a8 3d 68 0c cf be
       -0.78343403 -0.012881574 0.08229254 -0.40439153
000030 39 48 f4 3e 81 42 81 bf 51 35 37 3f e1 4b d2 3f
       0.47711352 -1.009842 0.7156573 1.6429406
000040 73 aa 37 3e cb de a0 3e ce f5 15 3e 25 56 c9 be
       0.17936115 0.31419978 0.14644548 -0.39323536
000050 c3 5a f2 bd d8 bf 00 3d 43 79 c0 be 7d 0a b7 3e
       -0.11833718 0.031432956 -0.37592515 0.3575019
000060 88 c0 17 bf 11 de d1 bf c7 28 2b 40 36 f1 8e 3f
       -0.59278154 -1.6395894 2.6743639 1.1167362
000070 45 39 71 3d f4 08 85 3f 1e 1d 5e 3e f2 19 5f 3e
       0.058892507 1.0393357 0.21690795 0.21787241
000080 8f bf 08 bf 40 f4 a5 3e 47 35 92 bf 08 ad 57 3f
       -0.53417295 0.3241291 -1.1422509 0.842484
000090 1e 83 a5 3e bc 53 88 bf 7f 71 8a 3e dd 04 99 3f
       0.32326597 -1.0650554 0.27039716 1.1954609

mul_8_bias f4 [40]
000000 c4 03 79 40 7e 3f 91 bd 2c 76 d8 bf 30 f3 4b bf
       3.8908548 -0.07092188 -1.6911063 -0.7966795
000010 dd 92 c5 be 87 0d a5 be 72 b8 05 3f 5b ab 89 bf
       -0.3858861 -0.32236883 0.52234566 -1.0755419
000020 f0 ef 07 bf 13 cf 99 bd 46 a0 06 bf 1a 97 7c 3d
       -0.5310049 -0.075101994 -0.5258831 0.06166754
000030 28 79 ed 3d d0 48 2c bf 0d a3 bd 3e 86 9a a6 3e
       0.11595374 -0.67298603 0.3703846 0.32539767
000040 16 27 d7 be d8 bf 32 be 28 28 fa bf 3d 56 7a bf
       -0.42022008 -0.17455995 -1.9543505 -0.9778784
000050 9a ff e5 3f d3 72 10 3f ff ff af 3f fd 8e 9c bf
       1.7968628 0.5642521 1.3749999 -1.2231137
000060 61 7a 04 bd 6e 3d 3a 3f c3 11 49 40 0b ed 22 3f
       -0.032343272 0.72749984 3.141709 0.6364295
000070 dc aa 88 40 2a 5a 78 3f b0 74 7f bf d5 23 56 bf
       4.270857 0.9701258 -0.99787426 -0.83648425
000080 3b e8 18 3f 19 42 ef 3f a0 4b 87 bf 1c 40 9d 3f
       0.59729356 1.8692046 -1.0569954 1.228519
000090 28 de 0a 3d 33 f9 ea bf f3 ea 6c be c0 bd 8f bf
       0.03390327 -1.83573 -0.23136501 -1.1229782

mul_9_bias f4 [48]
000000 44 a0 52 3e 61 2b 8b be 8a ee a3 3e 2c 61 f3 bf
       0.20568949 -0.27181533 0.32017928 -1.901403
000010 c2 50 1a bf eb 95 cf be c1 09 cf bd 16 16 3a bf
       -0.60279477 -0.40544066 -0.10109282 -0.7268995
000020 fc 00 29 40 d3 c9 23 bd 20 50 de be 8c 90 49 3f
       2.640685 -0.039987396 -0.43420506 0.78736186
000030 64 3b 5e c0 a4 9a 77 3e 22 f1 57 3e 0f 23 51 3e
       -3.472375 0.24180084 0.21088079 0.2042353
000040 78 c9 43 bf 21 a7 62 bf 63 56 83 bf bc 97 e9 bd
       -0.7647929 -0.8853627 -1.0260738 -0.11405894
000050 5c 56 a3 bf d8 ce 9e 3f 35 45 30 bf 52 52 f0 be
       -1.276073 1.2406874 -0.688556 -0.46937805
000060 b6 27 59 3f 5e 2a 09 3f 0c cc 64 3f ff 94 05 3f
       0.8482622 0.5358027 0.8937385 0.52180475
000070 5e 0e a9 bf e3 2a e3 bd cf 73 24 be 2a 67 ac bf
       -1.320751 -0.11092164 -0.16059802 -1.3468983
000080 f2 d7 e8 3d 28 dd 8e bf d9 3b 6d be 6b b3 3d 3f
       0.11369313 -1.1161242 -0.23167361 0.74101895
000090 6e 47 cc bf 63 41 be bf 3a 7c 8d 3f 3b 72 45 3f
       -1.5959299 -1.4863704 1.1053536 0.77127427
0000a0 40 e9 5f 3f e3 5b 0e bf a2 48 23 3e 68 04 50 bf
       0.87465286 -0.5560896 0.15945676 -0.81256723
0000b0 08 e5 81 bf 2c 33 28 3e ed 87 b2 bf f1 40 01 bf
       -1.014802 0.1642577 -1.3947731 -0.5048972

mul_10_bias f4 [48]
000000 e4 23 0b 40 f9 85 e2 bd c1 2f 14 bf 1d 94 33 3f
       2.1740656 -0.110607095 -0.57885367 0.7014788
000010 cb fa be bf f1 1a 12 3f 9b 8c b7 be 68 36 ce be
       -1.4920286 0.5707236 -0.3584946 -0.40275884
000020 08 b2 1f 40 6e 42 30 be ec 66 32 3c 07 1f 24 3f
       2.4952412 -0.17212841 0.010888796 0.64109844
000030 cb f1 3a be cd 07 95 bf a4 e3 6f be 61 6c aa 3e
       -0.18256299 -1.1643006 -0.23426682 0.33285812
000040 32 1e f2 be 4b 95 65 3e 52 16 4c 3e 6b d9 ee 3d
       -0.47288662 0.22420232 0.1993039 0.11662563
000050 38 93 47 be 57 27 47 bf fe b4 c3 3e 5d 2c 20 3e
       -0.19489753 -0.777944 0.38224024 0.15641923
000060 b7 a3 3a 3f bb 08 8c be 5c 51 2b 3d ee 55 2f 3e
       0.7290606 -0.2735041 0.041825637 0.17122623
000070 6b 8d 8e 3f 74 e2 00 3e 49 48 0f 3e ef c0 b5 3e
       1.1136907 0.12586385 0.13992418 0.3549876
000080 69 79 37 3e 90 35 fb be a3 99 71 be 12 23 9c be
       0.17917408 -0.49064302 -0.23593764 -0.30495507
000090 6e 8c e4 bf cb b0 6b 3d 10 30 5c 3e 62 c8 33 3f
       -1.7855356 0.05754165 0.2150271 0.70227635
0000a0 f5 97 69 3f 78 5f 0c 3f 79 e6 c9 3d 91 9b 17 3f
       0.91247493 0.54833174 0.09858412 0.5922175
0000b0 0a 4b cc 3f a6 80 74 3e 9d c1 94 3e 37 9b 5d 3e
       1.59604 0.238772 0.29053965 0.21641241
